final_state_dict.pth (torch, 1806 bytes, 1 tensors)

head.weight f4 [1, 32, 1, 1]
0	0x3c4785b3	0.0121778725
1	0xbd2186c1	-0.039435152
2	0xbc80c42b	-0.01571854
3	0x3d32b6b7	0.04363128
4	0xbd11711a	-0.035508253
5	0x3d7d768a	0.061880626
6	0x3cbe56ed	0.023234809
7	0x3d38f645	0.045156736
8	0x3ca136da	0.019679476
9	0x3cb72e61	0.022360982
10	0x3cc57dd3	0.02410785
11	0xbbd9e570	-0.0066496655
12	0x3d06c54c	0.032903
13	0xbd937c48	-0.07201439
14	0x3910e935	0.00013819787
15	0x3db38212	0.08765043
16	0x3d44885f	0.047981616
17	0x3d1b0e42	0.037855394
18	0x3da92e75	0.08260814
19	0x3d059c40	0.032619715
20	0x3d180c6a	0.037121214
21	0x3d21701a	0.03941355
22	0x3d2386c5	0.039923448
23	0xbd5d5028	-0.05403152
24	0x3d016527	0.031590607
25	0xbd15cc62	-0.036571868
26	0xbd4f8ef7	-0.05067345
27	0xbd741477	-0.05958983
28	0xbd18cc66	-0.037304305
29	0xbc94cebe	-0.018164989
30	0x3ccbf570	0.024897307
31	0x3c9e85ed	0.01935097
